models/Micro_speech_uint8/model.tflite (tflite, 18288 bytes, 2 tensors)

weights_quant/FakeQuantWithMinMaxVars u1 [1, 10, 8, 8] scale=0.0007875045 zero_point=132
000000 7c 54 db 82 d2 8e 66 7c 67 39 89 81 89 75 96 a6
       -0.006300036 -0.037800215 0.06851289 -0.001575009 0.06142535 0.007875045 -0.023625135 -0.006300036 -0.02283763 -0.059062835 0.0039375224 -0.0023625134 0.0039375224 -0.011812568 0.014175081 0.026775151
000010 5b 81 aa 8c c6 79 b3 87 9a 66 78 82 6a 87 8f a9
       -0.032287683 -0.0023625134 0.029925171 0.006300036 0.051975295 -0.00866255 0.03701271 0.0023625134 0.0173251 -0.023625135 -0.009450054 -0.001575009 -0.020475116 0.0023625134 0.00866255 0.029137665
000020 4f c8 86 86 ae 55 c9 97 5d 82 7d 7d 4a 77 99 9a
       -0.04173774 0.053550303 0.001575009 0.001575009 0.033075187 -0.03701271 0.05433781 0.014962586 -0.030712675 -0.001575009 -0.0055125314 -0.0055125314 -0.04567526 -0.010237558 0.016537594 0.0173251
000030 40 bf 6d 95 7a a4 a2 4d 5b 88 6e 7c 0f 84 59 5a
       -0.053550303 0.046462763 -0.018112604 0.013387576 -0.007875045 0.025200143 0.023625135 -0.043312747 -0.032287683 0.003150018 -0.0173251 -0.006300036 -0.09213802 0.0 -0.03386269 -0.033075187
000040 97 53 cb 80 b9 71 4a 78 99 44 8d 8c 8a 9e 74 bc
       0.014962586 -0.03858772 0.05591282 -0.003150018 0.04173774 -0.014962586 -0.04567526 -0.009450054 0.016537594 -0.050400287 0.0070875403 0.006300036 0.004725027 0.020475116 -0.012600072 0.04410025
000050 80 a2 a8 82 ce 82 9b 87 90 75 77 90 76 8c 72 a6
       -0.003150018 0.023625135 0.028350161 -0.001575009 0.05827533 -0.001575009 0.018112604 0.0023625134 0.009450054 -0.011812568 -0.010237558 0.009450054 -0.011025063 0.006300036 -0.014175081 0.026775151
000060 58 ec 84 77 d5 53 d0 93 64 8a 76 84 50 74 95 86
       -0.0346502 0.08190046 0.0 -0.010237558 0.06378786 -0.03858772 0.059850343 0.011812568 -0.025200143 0.004725027 -0.011025063 0.0 -0.04095023 -0.012600072 0.013387576 0.001575009
000070 47 c5 5d 85 a6 8b c8 47 5c 7e 58 76 24 5c 78 5a
       -0.048037775 0.05118779 -0.030712675 0.0007875045 0.026775151 0.0055125314 0.053550303 -0.048037775 -0.03150018 -0.004725027 -0.0346502 -0.011025063 -0.07560043 -0.03150018 -0.009450054 -0.033075187
000080 8e 4e d7 7b 8c 79 37 78 94 42 97 80 68 7a 56 bc
       0.007875045 -0.042525243 0.06536287 -0.0070875403 0.006300036 -0.00866255 -0.060637847 -0.009450054 0.012600072 -0.051975295 0.014962586 -0.003150018 -0.022050126 -0.007875045 -0.036225207 0.04410025
000090 7f b5 a8 78 bc 79 8a 8e 94 79 69 87 6c 7e 5c 9a
       -0.0039375224 0.03858772 0.028350161 -0.009450054 0.04410025 -0.00866255 0.004725027 0.007875045 0.012600072 -0.00866255 -0.021262622 0.0023625134 -0.018900108 -0.004725027 -0.03150018 0.0173251
0000a0 59 e8 75 6d ef 61 bd 79 69 78 73 81 55 6d 84 74
       -0.03386269 0.07875045 -0.011812568 -0.018112604 0.08426298 -0.027562657 0.044887755 -0.00866255 -0.021262622 -0.009450054 -0.013387576 -0.0023625134 -0.03701271 -0.018112604 0.0 -0.012600072
0000b0 43 b9 63 7f d0 79 de 38 57 62 57 82 3e 4c 9a 68
       -0.05118779 0.04173774 -0.025987647 -0.0039375224 0.059850343 -0.00866255 0.070875406 -0.059850343 -0.035437703 -0.026775151 -0.035437703 -0.001575009 -0.055125315 -0.04410025 0.0173251 -0.022050126
0000c0 a0 6a d8 64 73 81 39 73 aa 52 a5 89 5b a0 51 d0
       0.022050126 -0.020475116 0.066150375 -0.025200143 -0.013387576 -0.0023625134 -0.059062835 -0.013387576 0.029925171 -0.039375223 0.025987647 0.0039375224 -0.032287683 0.022050126 -0.040162727 0.059850343
0000d0 94 e3 b6 6f a0 87 6e 7e ce 88 74 a0 6e ac 55 9b
       0.012600072 0.07481293 0.039375223 -0.016537594 0.022050126 0.0023625134 -0.0173251 -0.004725027 0.05827533 0.003150018 -0.012600072 0.022050126 -0.0173251 0.03150018 -0.03701271 0.018112604
0000e0 89 e6 82 64 fa 71 b2 61 8d 73 77 99 61 91 85 78
       0.0039375224 0.07717544 -0.001575009 -0.025200143 0.092925526 -0.014962586 0.036225207 -0.027562657 0.0070875403 -0.013387576 -0.010237558 0.016537594 -0.027562657 0.010237558 0.0007875045 -0.009450054
0000f0 61 ab 5f 82 ff 90 e7 4e 85 63 4e 8b 5f 5d a6 7d
       -0.027562657 0.030712675 -0.029137665 -0.001575009 0.096863054 0.009450054 0.07796294 -0.042525243 0.0007875045 -0.025987647 -0.042525243 0.0055125314 -0.029137665 -0.030712675 0.026775151 -0.0055125314

weights_quant_1/FakeQuantWithMinMaxVars/transpose u1 [4, 4000] scale=0.0003703001 zero_point=129
000000 9d 69 91 5b 7c 8d 74 67 76 c4 75 5e 8e 89 6b 82
       0.010368403 -0.0088872025 0.005924802 -0.014071404 -0.0018515006 0.0044436012 -0.0048139016 -0.009627803 -0.0040733013 0.024810107 -0.0044436012 -0.012960504 0.0048139016 0.002962401 -0.008146603 0.0003703001
000010 70 95 9a 3d 6e 7d 6f 6c 8d 94 a2 79 98 98 71 7f
       -0.0062951017 0.0074060024 0.009257503 -0.025180407 -0.007035702 -0.0014812005 -0.006665402 -0.0077763023 0.0044436012 0.007035702 0.012219904 -0.002962401 0.008516903 0.008516903 -0.005924802 -0.0007406002
000020 57 79 6f 61 76 8c 7b 5c 6f 9c 50 62 6c 88 ac 84
       -0.015552605 -0.002962401 -0.006665402 -0.011849604 -0.0040733013 0.0040733013 -0.0022218006 -0.013701105 -0.006665402 0.009998103 -0.018144706 -0.011479303 -0.0077763023 0.0025921008 0.015922904 0.0011109003
000030 a0 b6 72 8b ac 80 7a 8d 84 84 a3 86 9c a9 a0 9f
       0.011479303 0.019625906 -0.005554502 0.0037030012 0.015922904 -0.0003703001 -0.0025921008 0.0044436012 0.0011109003 0.0011109003 0.012590203 0.0018515006 0.009998103 0.014812005 0.011479303 0.011109004
000040 7d a1 86 77 54 9f 5d 93 88 a2 9f 52 9d 8e a4 90
       -0.0014812005 0.011849604 0.0018515006 -0.0037030012 -0.016663505 0.011109004 -0.013330804 0.006665402 0.0025921008 0.012219904 0.011109004 -0.017404106 0.010368403 0.0048139016 0.012960504 0.005554502
000050 58 77 6e 6d 71 a4 a6 83 62 99 8e 7f 77 8c 77 6d
       -0.015182304 -0.0037030012 -0.007035702 -0.0074060024 -0.005924802 0.012960504 0.013701105 0.0007406002 -0.011479303 0.0088872025 0.0048139016 -0.0007406002 -0.0037030012 0.0040733013 -0.0037030012 -0.0074060024
000060 67 8c 7e 5d 9a 96 8d 8d 91 74 78 6c 7d 88 a3 7f
       -0.009627803 0.0040733013 -0.0011109003 -0.013330804 0.009257503 0.0077763023 0.0044436012 0.0044436012 0.005924802 -0.0048139016 -0.003332701 -0.0077763023 -0.0014812005 0.0025921008 0.012590203 -0.0007406002
000070 7e 8a 51 63 8a 91 8a ab a2 80 63 6e 74 96 78 7c
       -0.0011109003 0.003332701 -0.017774405 -0.011109004 0.003332701 0.005924802 0.003332701 0.015552605 0.012219904 -0.0003703001 -0.011109004 -0.007035702 -0.0048139016 0.0077763023 -0.003332701 -0.0018515006
000080 8e a2 85 9f 7f 93 94 92 a7 95 6c 7f 7f 97 a9 64
       0.0048139016 0.012219904 0.0014812005 0.011109004 -0.0007406002 0.006665402 0.007035702 0.0062951017 0.014071404 0.0074060024 -0.0077763023 -0.0007406002 -0.0007406002 0.008146603 0.014812005 -0.010738703
000090 a5 8d 7b 6f 5d 92 5b a4 88 8a 91 7d 7c 78 5a 90
       0.013330804 0.0044436012 -0.0022218006 -0.006665402 -0.013330804 0.0062951017 -0.014071404 0.012960504 0.0025921008 0.003332701 0.005924802 -0.0014812005 -0.0018515006 -0.003332701 -0.014441704 0.005554502
0000a0 89 97 6b 6b 77 7e 75 72 69 76 9b 4f 89 5d 8e 6e
       0.002962401 0.008146603 -0.008146603 -0.008146603 -0.0037030012 -0.0011109003 -0.0044436012 -0.005554502 -0.0088872025 -0.0040733013 0.009627803 -0.018515006 0.002962401 -0.013330804 0.0048139016 -0.007035702
0000b0 4c 8a 9b 58 9c 76 85 9f 46 88 53 8f a0 57 65 8f
       -0.019625906 0.003332701 0.009627803 -0.015182304 0.009998103 -0.0040733013 0.0014812005 0.011109004 -0.021847706 0.0025921008 -0.017033806 0.0051842015 0.011479303 -0.015552605 -0.010368403 0.0051842015
0000c0 4c 80 73 71 b4 82 96 70 79 80 4f 7a 9d 88 7a 64
       -0.019625906 -0.0003703001 -0.0051842015 -0.005924802 0.018885305 0.0003703001 0.0077763023 -0.0062951017 -0.002962401 -0.0003703001 -0.018515006 -0.0025921008 0.010368403 0.0025921008 -0.0025921008 -0.010738703
0000d0 67 6b 76 9f 71 9b 80 70 76 7c 46 74 bc 43 aa a7
       -0.009627803 -0.008146603 -0.0040733013 0.011109004 -0.005924802 0.009627803 -0.0003703001 -0.0062951017 -0.0040733013 -0.0018515006 -0.021847706 -0.0048139016 0.021847706 -0.022958606 0.015182304 0.014071404
0000e0 64 81 6e 5e 88 8d 76 85 6c 71 7e af 91 50 6f 92
       -0.010738703 0.0 -0.007035702 -0.012960504 0.0025921008 0.0044436012 -0.0040733013 0.0014812005 -0.0077763023 -0.005924802 -0.0011109003 0.017033806 0.005924802 -0.018144706 -0.006665402 0.0062951017
0000f0 55 78 82 85 a5 8a 97 8e 8a a3 60 82 79 75 7a 59
       -0.016293205 -0.003332701 0.0003703001 0.0014812005 0.013330804 0.003332701 0.008146603 0.0048139016 0.003332701 0.012590203 -0.012219904 0.0003703001 -0.002962401 -0.0044436012 -0.0025921008 -0.014812005
