slim/B_Q_compressed_models/person_layer6_83_39acc.tflite (tflite, 235456 bytes, 28 tensors)

MobilenetV1/Conv2d_0/weights_quant/FakeQuantWithMinMaxVars u1 [1, 3, 3, 8] scale=0.024417637 zero_point=134
0	0x84	-0.048835274
1	0x87	0.024417637
2	0x86	0.0
3	0x86	0.0
4	0x87	0.024417637
5	0x66	-0.7813644
6	0xe5	2.3196754
7	0x7d	-0.21975873
8	0x6a	-0.6836938
9	0x7f	-0.17092346
10	0x86	0.0
11	0x86	0.0
12	0x9a	0.48835275
13	0x8d	0.17092346
14	0xff	2.954534
15	0x75	-0.41509983
16	0x6f	-0.56160563
17	0x8f	0.21975873
18	0x86	0.0
19	0x86	0.0
20	0x85	-0.024417637
21	0x85	-0.024417637
22	0xcc	1.7092346
23	0x80	-0.14650582
24	0x86	0.0
25	0x93	0.31742927
26	0x86	0.0
27	0x86	0.0
28	0x88	0.048835274
29	0x52	-1.2697171
30	0x74	-0.43951747
31	0x70	-0.537188
32	0x4a	-1.4650582
33	0x57	-1.1476289
34	0x86	0.0
35	0x86	0.0
36	0xc1	1.4406406
37	0x96	0.3906822
38	0x64	-0.83019966
39	0x5f	-0.95228785
40	0x2c	-2.1975873
41	0xa2	0.6836938
42	0x86	0.0
43	0x86	0.0
44	0x85	-0.024417637
45	0x88	0.048835274
46	0x78	-0.3418469
47	0x71	-0.51277035
48	0x88	0.048835274
49	0x9e	0.5860233
50	0x86	0.0
51	0x86	0.0
52	0x8c	0.14650582
53	0x6e	-0.5860233
54	0x40	-1.7092346
55	0x82	-0.09767055
56	0x83	-0.07325291
57	0x56	-1.1720465
58	0x86	0.0
59	0x86	0.0
60	0x9e	0.5860233
61	0x8f	0.21975873
62	0x01	-3.2475457
63	0x7c	-0.24417637
64	0x71	-0.51277035
65	0x9f	0.6104409
66	0x86	0.0
67	0x86	0.0
68	0x84	-0.048835274
69	0x87	0.024417637
70	0x6f	-0.56160563
71	0x83	-0.07325291

MobilenetV1/Conv2d_10_depthwise/weights_quant/FakeQuantWithMinMaxVars u1 [1, 3, 3, 128] scale=0.012122264 zero_point=108
0	0x5b	-0.20607848
1	0xa4	0.6788468
2	0x81	0.25456753
3	0x52	-0.31517887
4	0x9b	0.56974643
5	0xa1	0.64248
6	0xa5	0.69096905
7	0xa7	0.7152136
8	0x5d	-0.18183397
9	0xa7	0.7152136
10	0xa3	0.6667245
11	0x99	0.5455019
12	0x90	0.43640152
13	0x72	0.07273358
14	0x74	0.09697811
15	0x55	-0.27881208
16	0x67	-0.060611323
17	0x98	0.5333796
18	0x59	-0.23032302
19	0x52	-0.31517887
20	0x4e	-0.36366794
21	0x9d	0.5939909
22	0x65	-0.08485585
23	0x3b	-0.5939909
24	0x79	0.15758944
25	0x44	-0.48489058
26	0x52	-0.31517887
27	0xaa	0.75158036
28	0x3c	-0.58186865
29	0x71	0.060611323
30	0x4e	-0.36366794
31	0x45	-0.4727683
32	0x9f	0.61823547
33	0x7b	0.18183397
34	0x9c	0.58186865
35	0x64	-0.09697811
36	0x5c	-0.19395623
37	0x99	0.5455019
38	0x58	-0.24244529
39	0x66	-0.07273358
40	0x75	0.10910038
41	0x31	-0.7152136
42	0x2b	-0.7879472
43	0x68	-0.048489057
44	0x49	-0.42427924
45	0x5d	-0.18183397
46	0x52	-0.31517887
47	0xbc	0.96978116
48	0x48	-0.43640152
49	0x42	-0.50913507
50	0xa7	0.7152136
51	0x3e	-0.55762416
52	0x98	0.5333796
53	0x82	0.2666898
54	0x9f	0.61823547
55	0xa7	0.7152136
56	0x2c	-0.7758249
57	0x4f	-0.35154566
58	0x58	-0.24244529
59	0x4c	-0.38791245
60	0x9b	0.56974643
61	0x5d	-0.18183397
62	0x74	0.09697811
63	0x7c	0.19395623
64	0x74	0.09697811
65	0x4f	-0.35154566
66	0x47	-0.44852376
67	0x36	-0.6546023
68	0x99	0.5455019
69	0x9b	0.56974643
70	0x82	0.2666898
71	0x4d	-0.37579018
72	0xb0	0.82431394
73	0x41	-0.52125734
74	0x4f	-0.35154566
75	0x5b	-0.20607848
76	0x41	-0.52125734
77	0x6b	-0.012122264
78	0x6d	0.012122264
79	0x92	0.46064603
80	0x67	-0.060611323
81	0x83	0.27881208
82	0x91	0.44852376
83	0x80	0.24244529
84	0x85	0.3030566
85	0x3d	-0.56974643
86	0x45	-0.4727683
87	0x51	-0.32730114
88	0x45	-0.4727683
89	0xa7	0.7152136
90	0x5f	-0.15758944
91	0x49	-0.42427924
92	0x49	-0.42427924
93	0x32	-0.7030913
94	0x80	0.24244529
95	0x5b	-0.20607848
96	0x48	-0.43640152
97	0x88	0.3394234
98	0x78	0.14546716
99	0x95	0.49701282
100	0xa1	0.64248
101	0x89	0.35154566
102	0x66	-0.07273358
103	0x56	-0.2666898
104	0x80	0.24244529
105	0x4b	-0.40003473
106	0x51	-0.32730114
107	0x51	-0.32730114
108	0x41	-0.52125734
109	0x72	0.07273358
110	0x8b	0.37579018
111	0x2e	-0.75158036
112	0x6f	0.03636679
113	0x4c	-0.38791245
114	0x2c	-0.7758249
115	0x54	-0.29093432
116	0xa1	0.64248
117	0x92	0.46064603
118	0x5b	-0.20607848
119	0xc0	1.0182701
120	0xa9	0.7394581
121	0x76	0.121222645
122	0x40	-0.5333796
123	0x6d	0.012122264
124	0x5a	-0.21820076
125	0x43	-0.49701282
126	0x65	-0.08485585
127	0x30	-0.7273359
128	0x6a	-0.024244528
129	0xa2	0.6546023
130	0x6b	-0.012122264
131	0x47	-0.44852376
132	0xac	0.7758249
133	0x86	0.31517887
134	0x9e	0.6061132
135	0xa1	0.64248
136	0x80	0.24244529
137	0x87	0.32730114
138	0x8c	0.38791245
139	0x6a	-0.024244528
140	0x75	0.10910038
141	0x9e	0.6061132
142	0xa7	0.7152136
143	0x67	-0.060611323
144	0x5b	-0.20607848
145	0xad	0.7879472
146	0x63	-0.10910038
147	0x4f	-0.35154566
148	0x7d	0.20607848
149	0x76	0.121222645
150	0x38	-0.63035774
151	0x55	-0.27881208
152	0x70	0.048489057
153	0x42	-0.50913507
154	0x4f	-0.35154566
155	0x76	0.121222645
156	0x49	-0.42427924
157	0x20	-0.92129207
158	0x5b	-0.20607848
159	0x61	-0.1333449
160	0x98	0.5333796
161	0x75	0.10910038
162	0x52	-0.31517887
163	0x60	-0.14546716
164	0x58	-0.24244529
165	0xc5	1.0788815
166	0x63	-0.10910038
167	0x75	0.10910038
168	0x61	-0.1333449
169	0x4f	-0.35154566
170	0x59	-0.23032302
171	0x6e	0.024244528
172	0x4c	-0.38791245
173	0x89	0.35154566
174	0x56	-0.2666898
175	0x54	-0.29093432
176	0xa7	0.7152136
177	0x5f	-0.15758944
178	0x95	0.49701282
179	0x44	-0.48489058
180	0xbc	0.96978116
181	0xb9	0.93341434
182	0x91	0.44852376
183	0x95	0.49701282
184	0x64	-0.09697811
185	0x92	0.46064603
186	0x43	-0.49701282
187	0x8e	0.41215697
188	0x55	-0.27881208
189	0x66	-0.07273358
190	0x4a	-0.41215697
191	0xcc	1.1637373
192	0x4e	-0.36366794
193	0x6e	0.024244528
194	0x52	-0.31517887
195	0x57	-0.25456753
196	0x8a	0.36366794
197	0xa6	0.7030913
198	0xb5	0.8849253
199	0x32	-0.7030913
200	0x81	0.25456753
201	0x4e	-0.36366794
202	0x4e	-0.36366794
203	0x9e	0.6061132
204	0x65	-0.08485585
205	0x97	0.52125734
206	0xa6	0.7030913
207	0x85	0.3030566
208	0x8d	0.40003473
209	0x82	0.2666898
210	0x82	0.2666898
211	0x70	0.048489057
212	0x8e	0.41215697
213	0x42	-0.50913507
214	0xb0	0.82431394
215	0x47	-0.44852376
216	0x46	-0.46064603
217	0x68	-0.048489057
218	0x60	-0.14546716
219	0x92	0.46064603
220	0xb7	0.9091698
221	0x80	0.24244529
222	0x76	0.121222645
223	0x70	0.048489057
224	0x56	-0.2666898
225	0x9e	0.6061132
226	0x93	0.4727683
227	0xa7	0.7152136
228	0x9f	0.61823547
229	0xc5	1.0788815
230	0x3a	-0.6061132
231	0x57	-0.25456753
232	0x9d	0.5939909
233	0x56	-0.2666898
234	0x85	0.3030566
235	0x5b	-0.20607848
236	0x5d	-0.18183397
237	0x60	-0.14546716
238	0xa9	0.7394581
239	0x4c	-0.38791245
240	0x4b	-0.40003473
241	0x50	-0.3394234
242	0x69	-0.03636679
243	0x55	-0.27881208
244	0xae	0.80006945
245	0x99	0.5455019
246	0x5a	-0.21820076
247	0x92	0.46064603
248	0x90	0.43640152
249	0x7c	0.19395623
250	0x3e	-0.55762416
251	0x5b	-0.20607848
252	0x35	-0.6667245
253	0x59	-0.23032302
254	0x5c	-0.19395623
255	0x64	-0.09697811

MobilenetV1/Conv2d_10_pointwise/weights_quant/FakeQuantWithMinMaxVars u1 [128, 1, 1, 128] scale=0.0039515826 zero_point=126
0	0x73	-0.04346741
1	0x69	-0.08298323
2	0x5d	-0.13040222
3	0x77	-0.027661078
4	0x7e	0.0
5	0x94	0.08693482
6	0x73	-0.04346741
7	0x8e	0.06322532
8	0xb5	0.21733704
9	0xe3	0.39910984
10	0xaa	0.17386964
11	0xaa	0.17386964
12	0x81	0.011854747
13	0x51	-0.17782122
14	0x5d	-0.13040222
15	0x87	0.035564244
16	0x6f	-0.05927374
17	0x7b	-0.011854747
18	0x84	0.023709495
19	0x7e	0.0
20	0x77	-0.027661078
21	0x77	-0.027661078
22	0x5d	-0.13040222
23	0x8b	0.051370572
24	0x69	-0.08298323
25	0x7b	-0.011854747
26	0x81	0.011854747
27	0x77	-0.027661078
28	0x5d	-0.13040222
29	0x51	-0.17782122
30	0x7b	-0.011854747
31	0xa3	0.14620855
32	0x3e	-0.2529013
33	0x81	0.011854747
34	0x7e	0.0
35	0xc1	0.26475602
36	0x97	0.098789565
37	0x69	-0.08298323
38	0x94	0.08693482
39	0x84	0.023709495
40	0xb5	0.21733704
41	0x73	-0.04346741
42	0x81	0.011854747
43	0x94	0.08693482
44	0x6f	-0.05927374
45	0x5d	-0.13040222
46	0xaa	0.17386964
47	0x81	0.011854747
48	0x5d	-0.13040222
49	0x69	-0.08298323
50	0x5d	-0.13040222
51	0x73	-0.04346741
52	0x8e	0.06322532
53	0x69	-0.08298323
54	0x5d	-0.13040222
55	0xb5	0.21733704
56	0x8b	0.051370572
57	0x84	0.023709495
58	0x6f	-0.05927374
59	0x7b	-0.011854747
60	0x5d	-0.13040222
61	0x77	-0.027661078
62	0x69	-0.08298323
63	0x81	0.011854747
64	0x81	0.011854747
65	0x81	0.011854747
66	0x7b	-0.011854747
67	0x5d	-0.13040222
68	0x51	-0.17782122
69	0x87	0.035564244
70	0x3e	-0.2529013
71	0x51	-0.17782122
72	0x73	-0.04346741
73	0x69	-0.08298323
74	0x77	-0.027661078
75	0x94	0.08693482
76	0x69	-0.08298323
77	0x51	-0.17782122
78	0x97	0.098789565
79	0x8b	0.051370572
80	0x7b	-0.011854747
81	0x7e	0.0
82	0x6f	-0.05927374
83	0x81	0.011854747
84	0x9b	0.1145959
85	0x51	-0.17782122
86	0x73	-0.04346741
87	0x94	0.08693482
88	0x8b	0.051370572
89	0x81	0.011854747
90	0x81	0.011854747
91	0x5d	-0.13040222
92	0x5d	-0.13040222
93	0xaa	0.17386964
94	0x5d	-0.13040222
95	0x5d	-0.13040222
96	0x77	-0.027661078
97	0x77	-0.027661078
98	0x73	-0.04346741
99	0x7e	0.0
100	0x87	0.035564244
101	0x9f	0.13040222
102	0x5d	-0.13040222
103	0x9b	0.1145959
104	0x84	0.023709495
105	0x73	-0.04346741
106	0x9b	0.1145959
107	0x6f	-0.05927374
108	0x51	-0.17782122
109	0xb5	0.21733704
110	0x69	-0.08298323
111	0x77	-0.027661078
112	0x7e	0.0
113	0x73	-0.04346741
114	0x73	-0.04346741
115	0x9f	0.13040222
116	0x87	0.035564244
117	0x97	0.098789565
118	0x69	-0.08298323
119	0x5d	-0.13040222
120	0x8e	0.06322532
121	0x84	0.023709495
122	0x87	0.035564244
123	0x69	-0.08298323
124	0x69	-0.08298323
125	0xaa	0.17386964
126	0x81	0.011854747
127	0x8e	0.06322532
128	0x7e	0.0
129	0x6f	-0.05927374
130	0x9f	0.13040222
131	0x73	-0.04346741
132	0x91	0.07508007
133	0x6f	-0.05927374
134	0x8b	0.051370572
135	0x77	-0.027661078
136	0x6f	-0.05927374
137	0x7e	0.0
138	0x5d	-0.13040222
139	0x73	-0.04346741
140	0x97	0.098789565
141	0x51	-0.17782122
142	0x8e	0.06322532
143	0x87	0.035564244
144	0x84	0.023709495
145	0x69	-0.08298323
146	0x87	0.035564244
147	0x51	-0.17782122
148	0x8e	0.06322532
149	0x84	0.023709495
150	0x5d	-0.13040222
151	0x73	-0.04346741
152	0x73	-0.04346741
153	0xaa	0.17386964
154	0x84	0.023709495
155	0x51	-0.17782122
156	0x19	-0.39910984
157	0x51	-0.17782122
158	0x69	-0.08298323
159	0x7e	0.0
160	0x9b	0.1145959
161	0x5d	-0.13040222
162	0x94	0.08693482
163	0xa3	0.14620855
164	0x7e	0.0
165	0x73	-0.04346741
166	0x8b	0.051370572
167	0x91	0.07508007
168	0x7e	0.0
169	0x94	0.08693482
170	0x5d	-0.13040222
171	0x81	0.011854747
172	0x69	-0.08298323
173	0x77	-0.027661078
174	0x9f	0.13040222
175	0x51	-0.17782122
176	0xaa	0.17386964
177	0x91	0.07508007
178	0x69	-0.08298323
179	0x69	-0.08298323
180	0x69	-0.08298323
181	0xb5	0.21733704
182	0x73	-0.04346741
183	0x51	-0.17782122
184	0xaa	0.17386964
185	0x77	-0.027661078
186	0x5d	-0.13040222
187	0x84	0.023709495
188	0x6f	-0.05927374
189	0x94	0.08693482
190	0x7e	0.0
191	0x8b	0.051370572
192	0x81	0.011854747
193	0x5d	-0.13040222
194	0x6f	-0.05927374
195	0x69	-0.08298323
196	0xa3	0.14620855
197	0x7b	-0.011854747
198	0x69	-0.08298323
199	0x87	0.035564244
200	0xb5	0.21733704
201	0x77	-0.027661078
202	0x77	-0.027661078
203	0x6f	-0.05927374
204	0x94	0.08693482
205	0x9f	0.13040222
206	0x7e	0.0
207	0x94	0.08693482
208	0xb5	0.21733704
209	0x94	0.08693482
210	0x87	0.035564244
211	0x87	0.035564244
212	0x51	-0.17782122
213	0x73	-0.04346741
214	0x6f	-0.05927374
215	0x3e	-0.2529013
216	0x73	-0.04346741
217	0x94	0.08693482
218	0x87	0.035564244
219	0x77	-0.027661078
220	0x81	0.011854747
221	0x51	-0.17782122
222	0x5d	-0.13040222
223	0x8b	0.051370572
224	0x87	0.035564244
225	0x91	0.07508007
226	0x3e	-0.2529013
227	0x3e	-0.2529013
228	0x73	-0.04346741
229	0x5d	-0.13040222
230	0x7b	-0.011854747
231	0x84	0.023709495
232	0x91	0.07508007
233	0x87	0.035564244
234	0x5d	-0.13040222
235	0x8b	0.051370572
236	0x77	-0.027661078
237	0x6f	-0.05927374
238	0x87	0.035564244
239	0x81	0.011854747
240	0x94	0.08693482
241	0x69	-0.08298323
242	0x5d	-0.13040222
243	0x8b	0.051370572
244	0x8e	0.06322532
245	0x9b	0.1145959
246	0x69	-0.08298323
247	0xe3	0.39910984
248	0x8b	0.051370572
249	0x94	0.08693482
250	0x9b	0.1145959
251	0xa3	0.14620855
252	0x69	-0.08298323
253	0xa3	0.14620855
254	0x5d	-0.13040222
255	0xa3	0.14620855

MobilenetV1/Conv2d_11_depthwise/weights_quant/FakeQuantWithMinMaxVars u1 [1, 3, 3, 128] scale=0.011124006 zero_point=128
0	0x61	-0.34484416
1	0x52	-0.51170427
2	0xbd	0.6785643
3	0x4f	-0.54507625
4	0x4e	-0.55620027
5	0x3c	-0.75643235
6	0x78	-0.088992044
7	0x59	-0.43383622
8	0xa5	0.4115882
9	0x6e	-0.2002321
10	0xbc	0.66744035
11	0xb7	0.6118203
12	0x6e	-0.2002321
13	0x95	0.23360412
14	0x51	-0.5228283
15	0x31	-0.87879646
16	0x64	-0.31147215
17	0x68	-0.26697612
18	0xa5	0.4115882
19	0x72	-0.15573607
20	0x47	-0.6340683
21	0xc3	0.7453084
22	0x25	-1.0122845
23	0x58	-0.44496024
24	0x83	0.033372015
25	0x07	-1.3460047
26	0x4d	-0.5673243
27	0xf0	1.2458886
28	0x97	0.25585213
29	0x60	-0.35596818
30	0x5c	-0.4004642
31	0x6b	-0.23360412
32	0x67	-0.27810013
33	0x48	-0.6229443
34	0x55	-0.47833225
35	0x8d	0.14461207
36	0xc4	0.75643235
37	0xb8	0.6229443
38	0x6b	-0.23360412
39	0x58	-0.44496024
40	0x8e	0.15573607
41	0x5d	-0.3893402
42	0xb5	0.5895723
43	0x8c	0.13348806
44	0x13	-1.2125165
45	0x6f	-0.18910809
46	0x9d	0.32259616
47	0xb3	0.5673243
48	0x60	-0.35596818
49	0x4f	-0.54507625
50	0x6b	-0.23360412
51	0xb1	0.54507625
52	0x5f	-0.3670922
53	0xd3	0.92329246
54	0x66	-0.28922415
55	0xa5	0.4115882
56	0x47	-0.6340683
57	0xa0	0.35596818
58	0xb3	0.5673243
59	0xb1	0.54507625
60	0x5c	-0.4004642
61	0x47	-0.6340683
62	0x8d	0.14461207
63	0x8a	0.11124006
64	0x5f	-0.3670922
65	0x67	-0.27810013
66	0x7f	-0.011124006
67	0xb2	0.55620027
68	0x4c	-0.5784483
69	0x43	-0.6785643
70	0x94	0.22248012
71	0x62	-0.33372018
72	0x3a	-0.7786804
73	0x65	-0.30034816
74	0x65	-0.30034816
75	0x82	0.022248011
76	0x91	0.18910809
77	0x62	-0.33372018
78	0x54	-0.48945624
79	0x40	-0.71193635
80	0x3f	-0.72306037
81	0xa1	0.3670922
82	0x50	-0.53395224
83	0x3a	-0.7786804
84	0xa4	0.4004642
85	0xa4	0.4004642
86	0xe2	1.0901525
87	0x8d	0.14461207
88	0x55	-0.47833225
89	0x5e	-0.37821618
90	0x65	-0.30034816
91	0xbc	0.66744035
92	0x48	-0.6229443
93	0x63	-0.32259616
94	0x5c	-0.4004642
95	0xb4	0.5784483
96	0xce	0.86767244
97	0x62	-0.33372018
98	0x99	0.27810013
99	0x31	-0.87879646
100	0x95	0.23360412
101	0x86	0.06674403
102	0x8d	0.14461207
103	0x4a	-0.6006963
104	0xc3	0.7453084
105	0x5c	-0.4004642
106	0x57	-0.45608422
107	0x40	-0.71193635
108	0xd1	0.9010444
109	0x6a	-0.24472812
110	0xb1	0.54507625
111	0xbb	0.65631634
112	0xb7	0.6118203
113	0xab	0.47833225
114	0x89	0.10011605
115	0xbb	0.65631634
116	0xc0	0.71193635
117	0x60	-0.35596818
118	0xc3	0.7453084
119	0xaa	0.46720824
120	0x5c	-0.4004642
121	0x6b	-0.23360412
122	0x45	-0.65631634
123	0xb2	0.55620027
124	0xc2	0.7341844
125	0x5e	-0.37821618
126	0x7e	-0.022248011
127	0x42	-0.6896883
128	0x35	-0.8343004
129	0x7a	-0.06674403
130	0xe4	1.1124005
131	0x74	-0.13348806
132	0x57	-0.45608422
133	0x64	-0.31147215
134	0x8b	0.12236406
135	0x67	-0.27810013
136	0xca	0.8231764
137	0x97	0.25585213
138	0xbe	0.6896883
139	0x9d	0.32259616
140	0x81	0.011124006
141	0xa0	0.35596818
142	0x4a	-0.6006963
143	0x5b	-0.4115882
144	0x7c	-0.044496022
145	0x74	-0.13348806
146	0x6d	-0.2113561
147	0x46	-0.6451923
148	0x88	0.088992044
149	0x61	-0.34484416
150	0x81	0.011124006
151	0x8e	0.15573607
152	0x91	0.18910809
153	0xc7	0.7898044
154	0x4b	-0.5895723
155	0x44	-0.66744035
156	0xac	0.48945624
157	0x55	-0.47833225
158	0x7a	-0.06674403
159	0x28	-0.9789125
160	0x60	-0.35596818
161	0x62	-0.33372018
162	0x3b	-0.76755637
163	0x26	-1.0011605
164	0xa5	0.4115882
165	0x7b	-0.05562003
166	0x9d	0.32259616
167	0x67	-0.27810013
168	0x6d	-0.2113561
169	0x6d	-0.2113561
170	0x9c	0.31147215
171	0x42	-0.6896883
172	0x9c	0.31147215
173	0x65	-0.30034816
174	0x8d	0.14461207
175	0xae	0.51170427
176	0x9e	0.33372018
177	0x62	-0.33372018
178	0x75	-0.12236406
179	0xc2	0.7341844
180	0x71	-0.16686009
181	0x7f	-0.011124006
182	0x7d	-0.033372015
183	0xd5	0.9455405
184	0x46	-0.6451923
185	0xa6	0.4227122
186	0xbf	0.70081234
187	0xb3	0.5673243
188	0x51	-0.5228283
189	0x68	-0.26697612
190	0xb0	0.53395224
191	0x98	0.26697612
192	0x77	-0.10011605
193	0x38	-0.8009284
194	0x68	-0.26697612
195	0x88	0.088992044
196	0x60	-0.35596818
197	0x9a	0.28922415
198	0xa7	0.43383622
199	0x4e	-0.55620027
200	0x95	0.23360412
201	0x60	-0.35596818
202	0x61	-0.34484416
203	0xa7	0.43383622
204	0xa0	0.35596818
205	0x8f	0.16686009
206	0x5e	-0.37821618
207	0x60	-0.35596818
208	0x5f	-0.3670922
209	0xc3	0.7453084
210	0x6d	-0.2113561
211	0x73	-0.14461207
212	0xa4	0.4004642
213	0x9b	0.30034816
214	0x6a	-0.24472812
215	0x9c	0.31147215
216	0x70	-0.17798409
217	0x41	-0.70081234
218	0x8d	0.14461207
219	0xa4	0.4004642
220	0x78	-0.088992044
221	0x5a	-0.4227122
222	0x5d	-0.3893402
223	0xac	0.48945624
224	0x90	0.17798409
225	0x60	-0.35596818
226	0xe7	1.1457726
227	0x76	-0.11124006
228	0x8a	0.11124006
229	0xa3	0.3893402
230	0x90	0.17798409
231	0x4a	-0.6006963
232	0xb2	0.55620027
233	0x89	0.10011605
234	0x91	0.18910809
235	0x56	-0.46720824
236	0x65	-0.30034816
237	0x44	-0.66744035
238	0x80	0.0
239	0xb1	0.54507625
240	0xb9	0.6340683
241	0x9a	0.28922415
242	0x67	-0.27810013
243	0xc4	0.75643235
244	0x77	-0.10011605
245	0x66	-0.28922415
246	0x90	0.17798409
247	0x87	0.07786804
248	0x76	-0.11124006
249	0x26	-1.0011605
250	0x8d	0.14461207
251	0x84	0.044496022
252	0xa2	0.37821618
253	0x5e	-0.37821618
254	0x66	-0.28922415
255	0x59	-0.43383622

MobilenetV1/Conv2d_11_pointwise/weights_quant/FakeQuantWithMinMaxVars u1 [128, 1, 1, 128] scale=0.0037297201 zero_point=99
0	0x5b	-0.029837761
1	0x9f	0.22378321
2	0x9f	0.22378321
3	0x9f	0.22378321
4	0x9f	0.22378321
5	0x23	-0.23870209
6	0x23	-0.23870209
7	0x78	0.078324124
8	0x5b	-0.029837761
9	0x69	0.022378322
10	0x5b	-0.029837761
11	0x23	-0.23870209
12	0x4d	-0.08205384
13	0x4d	-0.08205384
14	0x9f	0.22378321
15	0x23	-0.23870209
16	0x4d	-0.08205384
17	0x9f	0.22378321
18	0x69	0.022378322
19	0x4d	-0.08205384
20	0x23	-0.23870209
21	0x23	-0.23870209
22	0x23	-0.23870209
23	0x9f	0.22378321
24	0x5b	-0.029837761
25	0x4d	-0.08205384
26	0x69	0.022378322
27	0x4d	-0.08205384
28	0x23	-0.23870209
29	0x9f	0.22378321
30	0x5b	-0.029837761
31	0x78	0.078324124
32	0x69	0.022378322
33	0x5b	-0.029837761
34	0x4d	-0.08205384
35	0x9f	0.22378321
36	0x4d	-0.08205384
37	0x5b	-0.029837761
38	0x23	-0.23870209
39	0x4d	-0.08205384
40	0x69	0.022378322
41	0x78	0.078324124
42	0x69	0.022378322
43	0x5b	-0.029837761
44	0x69	0.022378322
45	0x23	-0.23870209
46	0x9f	0.22378321
47	0x5b	-0.029837761
48	0x4d	-0.08205384
49	0x5b	-0.029837761
50	0x4d	-0.08205384
51	0x78	0.078324124
52	0x78	0.078324124
53	0x5b	-0.029837761
54	0x5b	-0.029837761
55	0x4d	-0.08205384
56	0x5b	-0.029837761
57	0x4d	-0.08205384
58	0x9f	0.22378321
59	0x23	-0.23870209
60	0x23	-0.23870209
61	0x23	-0.23870209
62	0x4d	-0.08205384
63	0x78	0.078324124
64	0x5b	-0.029837761
65	0x23	-0.23870209
66	0x4d	-0.08205384
67	0x78	0.078324124
68	0x78	0.078324124
69	0x23	-0.23870209
70	0x9f	0.22378321
71	0x5b	-0.029837761
72	0x4d	-0.08205384
73	0x9f	0.22378321
74	0x69	0.022378322
75	0x4d	-0.08205384
76	0x78	0.078324124
77	0x9f	0.22378321
78	0x4d	-0.08205384
79	0x78	0.078324124
80	0x5b	-0.029837761
81	0x23	-0.23870209
82	0x4d	-0.08205384
83	0x23	-0.23870209
84	0x23	-0.23870209
85	0x23	-0.23870209
86	0x23	-0.23870209
87	0x23	-0.23870209
88	0x5b	-0.029837761
89	0x5b	-0.029837761
90	0x5b	-0.029837761
91	0x9f	0.22378321
92	0x5b	-0.029837761
93	0x4d	-0.08205384
94	0x23	-0.23870209
95	0x9f	0.22378321
96	0x4d	-0.08205384
97	0x69	0.022378322
98	0x5b	-0.029837761
99	0x5b	-0.029837761
100	0x78	0.078324124
101	0x4d	-0.08205384
102	0x9f	0.22378321
103	0x78	0.078324124
104	0x69	0.022378322
105	0x23	-0.23870209
106	0x9f	0.22378321
107	0x9f	0.22378321
108	0x4d	-0.08205384
109	0x4d	-0.08205384
110	0x69	0.022378322
111	0x23	-0.23870209
112	0x9f	0.22378321
113	0x23	-0.23870209
114	0x78	0.078324124
115	0x78	0.078324124
116	0x5b	-0.029837761
117	0x5b	-0.029837761
118	0x5b	-0.029837761
119	0x23	-0.23870209
120	0x5b	-0.029837761
121	0x5b	-0.029837761
122	0x69	0.022378322
123	0x9f	0.22378321
124	0x78	0.078324124
125	0x23	-0.23870209
126	0x23	-0.23870209
127	0x23	-0.23870209
128	0x9f	0.22378321
129	0x4d	-0.08205384
130	0x9f	0.22378321
131	0x78	0.078324124
132	0x9f	0.22378321
133	0x5b	-0.029837761
134	0x78	0.078324124
135	0x4d	-0.08205384
136	0x78	0.078324124
137	0x78	0.078324124
138	0x4d	-0.08205384
139	0x5b	-0.029837761
140	0x69	0.022378322
141	0x78	0.078324124
142	0x5b	-0.029837761
143	0x5b	-0.029837761
144	0x69	0.022378322
145	0x5b	-0.029837761
146	0x23	-0.23870209
147	0x4d	-0.08205384
148	0x9f	0.22378321
149	0x78	0.078324124
150	0x23	-0.23870209
151	0x69	0.022378322
152	0x23	-0.23870209
153	0x69	0.022378322
154	0x5b	-0.029837761
155	0x69	0.022378322
156	0x5b	-0.029837761
157	0x69	0.022378322
158	0x69	0.022378322
159	0x9f	0.22378321
160	0x23	-0.23870209
161	0x69	0.022378322
162	0x78	0.078324124
163	0x5b	-0.029837761
164	0x23	-0.23870209
165	0x9f	0.22378321
166	0x4d	-0.08205384
167	0x4d	-0.08205384
168	0x4d	-0.08205384
169	0x4d	-0.08205384
170	0x69	0.022378322
171	0x23	-0.23870209
172	0x23	-0.23870209
173	0x4d	-0.08205384
174	0x69	0.022378322
175	0x69	0.022378322
176	0x4d	-0.08205384
177	0x69	0.022378322
178	0x69	0.022378322
179	0x9f	0.22378321
180	0x4d	-0.08205384
181	0x23	-0.23870209
182	0x4d	-0.08205384
183	0x78	0.078324124
184	0x23	-0.23870209
185	0x9f	0.22378321
186	0x23	-0.23870209
187	0x5b	-0.029837761
188	0x69	0.022378322
189	0x78	0.078324124
190	0x4d	-0.08205384
191	0x5b	-0.029837761
192	0x23	-0.23870209
193	0x4d	-0.08205384
194	0x9f	0.22378321
195	0x9f	0.22378321
196	0x4d	-0.08205384
197	0x78	0.078324124
198	0x4d	-0.08205384
199	0x5b	-0.029837761
200	0x78	0.078324124
201	0x5b	-0.029837761
202	0x5b	-0.029837761
203	0x5b	-0.029837761
204	0x23	-0.23870209
205	0x4d	-0.08205384
206	0x5b	-0.029837761
207	0x69	0.022378322
208	0x9f	0.22378321
209	0x23	-0.23870209
210	0x5b	-0.029837761
211	0x9f	0.22378321
212	0x69	0.022378322
213	0x23	-0.23870209
214	0x9f	0.22378321
215	0x4d	-0.08205384
216	0x78	0.078324124
217	0x23	-0.23870209
218	0x9f	0.22378321
219	0x23	-0.23870209
220	0x23	-0.23870209
221	0x69	0.022378322
222	0x69	0.022378322
223	0x78	0.078324124
224	0x9f	0.22378321
225	0x4d	-0.08205384
226	0x4d	-0.08205384
227	0x5b	-0.029837761
228	0x9f	0.22378321
229	0x9f	0.22378321
230	0x9f	0.22378321
231	0x4d	-0.08205384
232	0x4d	-0.08205384
233	0x5b	-0.029837761
234	0x78	0.078324124
235	0x5b	-0.029837761
236	0x5b	-0.029837761
237	0x5b	-0.029837761
238	0x78	0.078324124
239	0x23	-0.23870209
240	0x5b	-0.029837761
241	0x23	-0.23870209
242	0x5b	-0.029837761
243	0x69	0.022378322
244	0x5b	-0.029837761
245	0x23	-0.23870209
246	0x23	-0.23870209
247	0x69	0.022378322
248	0x69	0.022378322
249	0x78	0.078324124
250	0x9f	0.22378321
251	0x4d	-0.08205384
252	0x9f	0.22378321
253	0x23	-0.23870209
254	0x5b	-0.029837761
255	0x9f	0.22378321

MobilenetV1/Conv2d_12_depthwise/weights_quant/FakeQuantWithMinMaxVars u1 [1, 3, 3, 128] scale=0.00945285 zero_point=125
0	0x83	0.056717098
1	0x8d	0.1512456
2	0x3e	-0.59552956
3	0x32	-0.70896375
4	0x83	0.056717098
5	0x33	-0.6995109
6	0x3e	-0.59552956
7	0xa4	0.36866114
8	0x56	-0.36866114
9	0x79	-0.0378114
10	0x52	-0.40647253
11	0x5c	-0.31194404
12	0x54	-0.38756683
13	0xc5	0.6806052
14	0x81	0.0378114
15	0x4c	-0.46318963
16	0xbd	0.6049824
17	0x44	-0.5388124
18	0x4d	-0.45373678
19	0x56	-0.36866114
20	0xad	0.45373678
21	0x8d	0.1512456
22	0xb6	0.5388124
23	0x6c	-0.16069844
24	0x85	0.0756228
25	0x5a	-0.33084974
26	0xaa	0.42537823
27	0x98	0.25522694
28	0xbc	0.59552956
29	0x4a	-0.48209533
30	0x52	-0.40647253
31	0x47	-0.5104539
32	0x6c	-0.16069844
33	0xb9	0.567171
34	0x42	-0.55771816
35	0x5d	-0.3024912
36	0x69	-0.18905699
37	0x4f	-0.43483108
38	0x75	-0.0756228
39	0x47	-0.5104539
40	0xa5	0.37811399
41	0x93	0.20796269
42	0x2d	-0.75622797
43	0x45	-0.5293596
44	0xcd	0.75622797
45	0x4d	-0.45373678
46	0xa2	0.34975544
47	0x66	-0.21741554
48	0x64	-0.23632124
49	0x64	-0.23632124
50	0x55	-0.37811399
51	0xa7	0.39701968
52	0x8e	0.16069844
53	0xa6	0.38756683
54	0xa7	0.39701968
55	0xa8	0.40647253
56	0x88	0.103981346
57	0x51	-0.41592538
58	0x4e	-0.44428393
59	0xd0	0.78458655
60	0x5f	-0.2835855
61	0x5a	-0.33084974
62	0x7a	-0.028358549
63	0x5f	-0.2835855
64	0x8c	0.14179274
65	0xb3	0.5104539
66	0x9f	0.3213969
67	0x47	-0.5104539
68	0x52	-0.40647253
69	0xde	0.9169264
70	0xc3	0.6616995
71	0x57	-0.3592083
72	0x4e	-0.44428393
73	0x58	-0.34975544
74	0x75	-0.0756228
75	0xc5	0.6806052
76	0xab	0.43483108
77	0x9e	0.31194404
78	0xaa	0.42537823
79	0x4e	-0.44428393
80	0x76	-0.06616995
81	0x41	-0.567171
82	0x75	-0.0756228
83	0xd2	0.8034922
84	0xb1	0.49154818
85	0x64	-0.23632124
86	0xba	0.5766238
87	0xc6	0.690058
88	0xaf	0.47264248
89	0x4c	-0.46318963
90	0x98	0.25522694
91	0x8f	0.1701513
92	0xb2	0.501001
93	0x4f	-0.43483108
94	0x8f	0.1701513
95	0x5b	-0.3213969
96	0xa0	0.33084974
97	0x92	0.19850984
98	0x75	-0.0756228
99	0xa3	0.3592083
100	0x7a	-0.028358549
101	0xd0	0.78458655
102	0xa8	0.40647253
103	0x42	-0.55771816
104	0x3b	-0.6238881
105	0xa3	0.3592083
106	0xa3	0.3592083
107	0x7b	-0.0189057
108	0xae	0.46318963
109	0xb9	0.567171
110	0x9a	0.27413264
111	0x51	-0.41592538
112	0xc2	0.6522466
113	0x52	-0.40647253
114	0xae	0.46318963
115	0x64	-0.23632124
116	0x4e	-0.44428393
117	0x46	-0.51990676
118	0x5b	-0.3213969
119	0xa7	0.39701968
120	0xcc	0.74677515
121	0x8d	0.1512456
122	0x93	0.20796269
123	0x50	-0.42537823
124	0x56	-0.36866114
125	0x78	-0.047264248
126	0x51	-0.41592538
127	0x60	-0.27413264
128	0xcb	0.7373223
129	0x98	0.25522694
130	0x84	0.06616995
131	0x32	-0.70896375
132	0x8f	0.1701513
133	0x44	-0.5388124
134	0x3e	-0.59552956
135	0x9d	0.3024912
136	0x57	-0.3592083
137	0x7c	-0.00945285
138	0x47	-0.5104539
139	0x59	-0.3403026
140	0x43	-0.5482653
141	0xc5	0.6806052
142	0x8f	0.1701513
143	0x41	-0.567171
144	0xbe	0.6144352
145	0x36	-0.67115235
146	0x71	-0.113434196
147	0x4e	-0.44428393
148	0xb4	0.51990676
149	0x9c	0.29303834
150	0xb5	0.5293596
151	0x5e	-0.29303834
152	0x88	0.103981346
153	0x5b	-0.3213969
154	0xfe	1.2194176
155	0xc8	0.70896375
156	0xac	0.44428393
157	0x53	-0.39701968
158	0x56	-0.36866114
159	0x59	-0.3403026
160	0xa8	0.40647253
161	0x48	-0.501001
162	0x4c	-0.46318963
163	0x52	-0.40647253
164	0x58	-0.34975544
165	0x4f	-0.43483108
166	0x94	0.21741554
167	0x42	-0.55771816
168	0xbe	0.6144352
169	0x9f	0.3213969
170	0x93	0.20796269
171	0x4a	-0.48209533
172	0xd2	0.8034922
173	0x36	-0.67115235
174	0xb7	0.5482653
175	0x5b	-0.3213969
176	0x58	-0.34975544
177	0x4f	-0.43483108
178	0x50	-0.42537823
179	0xb8	0.55771816
180	0x8f	0.1701513
181	0xad	0.45373678
182	0x9e	0.31194404
183	0xc6	0.690058
184	0x8c	0.14179274
185	0x49	-0.49154818
186	0x51	-0.41592538
187	0xc2	0.6522466
188	0x5f	-0.2835855
189	0x6d	-0.1512456
190	0x6c	-0.16069844
191	0x64	-0.23632124
192	0xb5	0.5293596
193	0xb8	0.55771816
194	0xc3	0.6616995
195	0x47	-0.5104539
196	0x44	-0.5388124
197	0x7a	-0.028358549
198	0xca	0.7278694
199	0x53	-0.39701968
200	0x53	-0.39701968
201	0x53	-0.39701968
202	0x79	-0.0378114
203	0x75	-0.0756228
204	0xbb	0.5860767
205	0xa3	0.3592083
206	0xbb	0.5860767
207	0x3c	-0.6144352
208	0x56	-0.36866114
209	0x3f	-0.5860767
210	0x5e	-0.29303834
211	0xd6	0.8413036
212	0xb8	0.55771816
213	0x5c	-0.31194404
214	0xcd	0.75622797
215	0xe4	0.97364354
216	0x8e	0.16069844
217	0x49	-0.49154818
218	0x9e	0.31194404
219	0x6b	-0.1701513
220	0xca	0.7278694
221	0x4f	-0.43483108
222	0xa5	0.37811399
223	0x51	-0.41592538
224	0xb7	0.5482653
225	0xa5	0.37811399
226	0x67	-0.20796269
227	0xa0	0.33084974
228	0xdf	0.92637926
229	0xd3	0.81294507
230	0xb4	0.51990676
231	0x32	-0.70896375
232	0x48	-0.501001
233	0xc0	0.63334095
234	0xa4	0.36866114
235	0xa4	0.36866114
236	0xab	0.43483108
237	0xc7	0.6995109
238	0xa4	0.36866114
239	0x43	-0.5482653
240	0xc6	0.690058
241	0x52	-0.40647253
242	0xb0	0.48209533
243	0x57	-0.3592083
244	0x64	-0.23632124
245	0x89	0.113434196
246	0x57	-0.3592083
247	0xc6	0.690058
248	0xbc	0.59552956
249	0x8a	0.122887045
250	0xa8	0.40647253
251	0x38	-0.6522466
252	0x58	-0.34975544
253	0x88	0.103981346
254	0x44	-0.5388124
255	0x46	-0.51990676

MobilenetV1/Conv2d_12_pointwise/weights_quant/FakeQuantWithMinMaxVars u1 [256, 1, 1, 128] scale=0.0041081537 zero_point=117
0	0x8f	0.106812
1	0x57	-0.12324461
2	0x80	0.04518969
3	0x9d	0.16432615
4	0x3e	-0.22594845
5	0x7b	0.024648923
6	0x3e	-0.22594845
7	0x77	0.0082163075
8	0x80	0.04518969
9	0x80	0.04518969
10	0xe3	0.4518969
11	0x9d	0.16432615
12	0x7b	0.024648923
13	0x57	-0.12324461
14	0xbb	0.28757077
15	0xbb	0.28757077
16	0xbb	0.28757077
17	0x3e	-0.22594845
18	0x57	-0.12324461
19	0x9d	0.16432615
20	0x8f	0.106812
21	0x7b	0.024648923
22	0x6b	-0.041081537
23	0x80	0.04518969
24	0x57	-0.12324461
25	0x73	-0.0082163075
26	0x80	0.04518969
27	0x86	0.06983861
28	0x3e	-0.22594845
29	0x86	0.06983861
30	0x8f	0.106812
31	0x73	-0.0082163075
32	0x7b	0.024648923
33	0xbb	0.28757077
34	0x80	0.04518969
35	0x77	0.0082163075
36	0x9d	0.16432615
37	0x9d	0.16432615
38	0x57	-0.12324461
39	0x86	0.06983861
40	0x86	0.06983861
41	0x57	-0.12324461
42	0x57	-0.12324461
43	0x80	0.04518969
44	0x9d	0.16432615
45	0x57	-0.12324461
46	0x8f	0.106812
47	0x86	0.06983861
48	0x8f	0.106812
49	0x6f	-0.024648923
50	0x57	-0.12324461
51	0x73	-0.0082163075
52	0x57	-0.12324461
53	0x57	-0.12324461
54	0x19	-0.37795013
55	0x77	0.0082163075
56	0x6f	-0.024648923
57	0x6b	-0.041081537
58	0x80	0.04518969
59	0x8f	0.106812
60	0x80	0.04518969
61	0x8f	0.106812
62	0x73	-0.0082163075
63	0x57	-0.12324461
64	0xbb	0.28757077
65	0x3e	-0.22594845
66	0x57	-0.12324461
67	0x80	0.04518969
68	0x86	0.06983861
69	0x57	-0.12324461
70	0x6b	-0.041081537
71	0x66	-0.061622307
72	0x77	0.0082163075
73	0x8f	0.106812
74	0x6b	-0.041081537
75	0x66	-0.061622307
76	0x3e	-0.22594845
77	0x80	0.04518969
78	0x57	-0.12324461
79	0x73	-0.0082163075
80	0x73	-0.0082163075
81	0x80	0.04518969
82	0xe3	0.4518969
83	0x77	0.0082163075
84	0x57	-0.12324461
85	0x66	-0.061622307
86	0x6b	-0.041081537
87	0x57	-0.12324461
88	0x66	-0.061622307
89	0x57	-0.12324461
90	0x77	0.0082163075
91	0x73	-0.0082163075
92	0x9d	0.16432615
93	0x9d	0.16432615
94	0x57	-0.12324461
95	0x8f	0.106812
96	0x6b	-0.041081537
97	0x9d	0.16432615
98	0x77	0.0082163075
99	0x6b	-0.041081537
100	0x8f	0.106812
101	0x6f	-0.024648923
102	0x8f	0.106812
103	0x66	-0.061622307
104	0x3e	-0.22594845
105	0x7b	0.024648923
106	0x73	-0.0082163075
107	0xaa	0.21773215
108	0x57	-0.12324461
109	0x86	0.06983861
110	0x6f	-0.024648923
111	0x7b	0.024648923
112	0x66	-0.061622307
113	0x73	-0.0082163075
114	0x57	-0.12324461
115	0x73	-0.0082163075
116	0x86	0.06983861
117	0x80	0.04518969
118	0x19	-0.37795013
119	0x6b	-0.041081537
120	0x57	-0.12324461
121	0x57	-0.12324461
122	0x9d	0.16432615
123	0x9d	0.16432615
124	0xaa	0.21773215
125	0x86	0.06983861
126	0x57	-0.12324461
127	0x9d	0.16432615
128	0x8f	0.106812
129	0xaa	0.21773215
130	0x8f	0.106812
131	0x77	0.0082163075
132	0x8f	0.106812
133	0x66	-0.061622307
134	0x9d	0.16432615
135	0x77	0.0082163075
136	0x73	-0.0082163075
137	0x57	-0.12324461
138	0x57	-0.12324461
139	0xaa	0.21773215
140	0x3e	-0.22594845
141	0x73	-0.0082163075
142	0x57	-0.12324461
143	0x86	0.06983861
144	0x8f	0.106812
145	0x73	-0.0082163075
146	0x8f	0.106812
147	0x77	0.0082163075
148	0x7b	0.024648923
149	0x57	-0.12324461
150	0x73	-0.0082163075
151	0x6b	-0.041081537
152	0x9d	0.16432615
153	0x86	0.06983861
154	0x7b	0.024648923
155	0xaa	0.21773215
156	0x8f	0.106812
157	0x66	-0.061622307
158	0x8f	0.106812
159	0xbb	0.28757077
160	0x6f	-0.024648923
161	0x80	0.04518969
162	0x57	-0.12324461
163	0x19	-0.37795013
164	0x6b	-0.041081537
165	0x73	-0.0082163075
166	0x57	-0.12324461
167	0x8f	0.106812
168	0x57	-0.12324461
169	0x8f	0.106812
170	0x73	-0.0082163075
171	0x73	-0.0082163075
172	0x9d	0.16432615
173	0x8f	0.106812
174	0x57	-0.12324461
175	0x3e	-0.22594845
176	0x6b	-0.041081537
177	0x8f	0.106812
178	0x86	0.06983861
179	0x77	0.0082163075
180	0x77	0.0082163075
181	0x6b	-0.041081537
182	0x86	0.06983861
183	0x6f	-0.024648923
184	0x66	-0.061622307
185	0x9d	0.16432615
186	0x77	0.0082163075
187	0x9d	0.16432615
188	0x73	-0.0082163075
189	0x7b	0.024648923
190	0x73	-0.0082163075
191	0xbb	0.28757077
192	0x66	-0.061622307
193	0x8f	0.106812
194	0x8f	0.106812
195	0x57	-0.12324461
196	0x6f	-0.024648923
197	0x7b	0.024648923
198	0x8f	0.106812
199	0x77	0.0082163075
200	0x57	-0.12324461
201	0x6f	-0.024648923
202	0x6f	-0.024648923
203	0x8f	0.106812
204	0x77	0.0082163075
205	0x9d	0.16432615
206	0x8f	0.106812
207	0x7b	0.024648923
208	0x57	-0.12324461
209	0x57	-0.12324461
210	0x77	0.0082163075
211	0x73	-0.0082163075
212	0x66	-0.061622307
213	0x80	0.04518969
214	0x77	0.0082163075
215	0x80	0.04518969
216	0x57	-0.12324461
217	0x6f	-0.024648923
218	0x8f	0.106812
219	0x19	-0.37795013
220	0x6f	-0.024648923
221	0x80	0.04518969
222	0x8f	0.106812
223	0x80	0.04518969
224	0x8f	0.106812
225	0x6b	-0.041081537
226	0x73	-0.0082163075
227	0x7b	0.024648923
228	0x57	-0.12324461
229	0x8f	0.106812
230	0x3e	-0.22594845
231	0x8f	0.106812
232	0x86	0.06983861
233	0x6b	-0.041081537
234	0x80	0.04518969
235	0x6b	-0.041081537
236	0x8f	0.106812
237	0x6b	-0.041081537
238	0x66	-0.061622307
239	0x6f	-0.024648923
240	0x66	-0.061622307
241	0x77	0.0082163075
242	0x73	-0.0082163075
243	0x73	-0.0082163075
244	0x8f	0.106812
245	0x86	0.06983861
246	0x7b	0.024648923
247	0x57	-0.12324461
248	0x80	0.04518969
249	0x66	-0.061622307
250	0x8f	0.106812
251	0x7b	0.024648923
252	0x7b	0.024648923
253	0xaa	0.21773215
254	0x6b	-0.041081537
255	0x8f	0.106812

MobilenetV1/Conv2d_13_depthwise/weights_quant/FakeQuantWithMinMaxVars u1 [1, 3, 3, 256] scale=0.04754148 zero_point=120
0	0x79	0.04754148
1	0x80	0.38033184
2	0x63	-0.99837106
3	0x55	-1.6639519
4	0x47	-2.3295326
5	0x72	-0.28524888
6	0x6c	-0.57049775
7	0x8d	0.99837106
8	0x55	-1.6639519
9	0x77	-0.04754148
10	0x4b	-2.1393666
11	0x6a	-0.66558075
12	0x6e	-0.4754148
13	0x6a	-0.66558075
14	0x6e	-0.4754148
15	0x6f	-0.4278733
16	0x6e	-0.4754148
17	0x72	-0.28524888
18	0x7a	0.09508296
19	0x63	-0.99837106
20	0x66	-0.8557466
21	0x7a	0.09508296
22	0x72	-0.28524888
23	0x5c	-1.3311615
24	0x7c	0.19016592
25	0x87	0.7131222
26	0x7e	0.28524888
27	0x86	0.66558075
28	0x67	-0.8082052
29	0x61	-1.093454
30	0x99	1.5688689
31	0x88	0.7606637
32	0x76	-0.09508296
33	0x73	-0.2377074
34	0x8a	0.8557466
35	0x6f	-0.4278733
36	0x65	-0.9032881
37	0x6f	-0.4278733
38	0x73	-0.2377074
39	0x7d	0.2377074
40	0x70	-0.38033184
41	0x89	0.8082052
42	0x6b	-0.61803925
43	0x6c	-0.57049775
44	0x73	-0.2377074
45	0x5a	-1.4262444
46	0x8e	1.0459126
47	0x8e	1.0459126
48	0x73	-0.2377074
49	0x75	-0.14262444
50	0x73	-0.2377074
51	0x68	-0.7606637
52	0x75	-0.14262444
53	0x96	1.4262444
54	0x86	0.66558075
55	0xc1	3.4705281
56	0x76	-0.09508296
57	0x68	-0.7606637
58	0x51	-1.8541178
59	0x6d	-0.5229563
60	0x6c	-0.57049775
61	0x5a	-1.4262444
62	0x76	-0.09508296
63	0x58	-1.5213274
64	0x84	0.57049775
65	0x75	-0.14262444
66	0x50	-1.9016593
67	0x51	-1.8541178
68	0x76	-0.09508296
69	0x64	-0.9508296
70	0x6c	-0.57049775
71	0x7f	0.33279037
72	0x77	-0.04754148
73	0x6f	-0.4278733
74	0x63	-0.99837106
75	0x67	-0.8082052
76	0x6c	-0.57049775
77	0x6f	-0.4278733
78	0x72	-0.28524888
79	0x6d	-0.5229563
80	0x71	-0.33279037
81	0x6c	-0.57049775
82	0x83	0.5229563
83	0x76	-0.09508296
84	0x76	-0.09508296
85	0x67	-0.8082052
86	0x7e	0.28524888
87	0x77	-0.04754148
88	0x6c	-0.57049775
89	0x8a	0.8557466
90	0x7e	0.28524888
91	0x70	-0.38033184
92	0x62	-1.0459126
93	0x84	0.57049775
94	0x76	-0.09508296
95	0x65	-0.9032881
96	0x59	-1.4737859
97	0x6d	-0.5229563
98	0x7a	0.09508296
99	0x6e	-0.4754148
100	0x77	-0.04754148
101	0x89	0.8082052
102	0x71	-0.33279037
103	0x6d	-0.5229563
104	0x7b	0.14262444
105	0x5f	-1.188537
106	0x8b	0.9032881
107	0x65	-0.9032881
108	0x7f	0.33279037
109	0xa3	2.0442836
110	0xa4	2.0918252
111	0x6a	-0.66558075
112	0x61	-1.093454
113	0x8c	0.9508296
114	0x82	0.4754148
115	0x60	-1.1409955
116	0x71	-0.33279037
117	0x85	0.61803925
118	0x7a	0.09508296
119	0x6f	-0.4278733
120	0x6f	-0.4278733
121	0x68	-0.7606637
122	0x6a	-0.66558075
123	0x6b	-0.61803925
124	0x7f	0.33279037
125	0x72	-0.28524888
126	0x69	-0.7131222
127	0x67	-0.8082052
128	0x5b	-1.3787029
129	0x6a	-0.66558075
130	0x85	0.61803925
131	0x5f	-1.188537
132	0x66	-0.8557466
133	0x61	-1.093454
134	0x71	-0.33279037
135	0x77	-0.04754148
136	0x62	-1.0459126
137	0x75	-0.14262444
138	0x68	-0.7606637
139	0x6c	-0.57049775
140	0x85	0.61803925
141	0x72	-0.28524888
142	0x68	-0.7606637
143	0x6a	-0.66558075
144	0x6f	-0.4278733
145	0x50	-1.9016593
146	0x74	-0.19016592
147	0x5c	-1.3311615
148	0x68	-0.7606637
149	0x7d	0.2377074
150	0x80	0.38033184
151	0x5a	-1.4262444
152	0x7e	0.28524888
153	0x62	-1.0459126
154	0x6b	-0.61803925
155	0x63	-0.99837106
156	0x59	-1.4737859
157	0x79	0.04754148
158	0x84	0.57049775
159	0x7d	0.2377074
160	0x89	0.8082052
161	0x97	1.4737859
162	0x85	0.61803925
163	0x6c	-0.57049775
164	0x73	-0.2377074
165	0x61	-1.093454
166	0x5f	-1.188537
167	0x7d	0.2377074
168	0x5d	-1.28362
169	0x85	0.61803925
170	0x7e	0.28524888
171	0x65	-0.9032881
172	0x7a	0.09508296
173	0x6f	-0.4278733
174	0x79	0.04754148
175	0x66	-0.8557466
176	0x7a	0.09508296
177	0x7b	0.14262444
178	0x6d	-0.5229563
179	0x85	0.61803925
180	0x56	-1.6164104
181	0x78	0.0
182	0x86	0.66558075
183	0x7a	0.09508296
184	0x6d	-0.5229563
185	0x7b	0.14262444
186	0x88	0.7606637
187	0x61	-1.093454
188	0x71	-0.33279037
189	0x70	-0.38033184
190	0x54	-1.7114933
191	0x6c	-0.57049775
192	0x64	-0.9508296
193	0x66	-0.8557466
194	0x97	1.4737859
195	0x55	-1.6639519
196	0x6e	-0.4754148
197	0x6b	-0.61803925
198	0x76	-0.09508296
199	0x94	1.3311615
200	0x81	0.4278733
201	0x7e	0.28524888
202	0x66	-0.8557466
203	0x6d	-0.5229563
204	0x5a	-1.4262444
205	0x59	-1.4737859
206	0xb1	2.7098644
207	0x50	-1.9016593
208	0x61	-1.093454
209	0x65	-0.9032881
210	0x6d	-0.5229563
211	0x70	-0.38033184
212	0x8d	0.99837106
213	0x75	-0.14262444
214	0x72	-0.28524888
215	0x66	-0.8557466
216	0x6b	-0.61803925
217	0x89	0.8082052
218	0x85	0.61803925
219	0x5f	-1.188537
220	0x68	-0.7606637
221	0xad	2.5196984
222	0x65	-0.9032881
223	0x6a	-0.66558075
224	0x78	0.0
225	0x66	-0.8557466
226	0x62	-1.0459126
227	0x74	-0.19016592
228	0x6e	-0.4754148
229	0x6e	-0.4754148
230	0x86	0.66558075
231	0x92	1.2360785
232	0x65	-0.9032881
233	0x71	-0.33279037
234	0x71	-0.33279037
235	0x7a	0.09508296
236	0x6a	-0.66558075
237	0x6d	-0.5229563
238	0x77	-0.04754148
239	0x5d	-1.28362
240	0x87	0.7131222
241	0x7b	0.14262444
242	0x76	-0.09508296
243	0x6c	-0.57049775
244	0x6e	-0.4754148
245	0x61	-1.093454
246	0x73	-0.2377074
247	0x6f	-0.4278733
248	0x4b	-2.1393666
249	0x5f	-1.188537
250	0x6d	-0.5229563
251	0x88	0.7606637
252	0x60	-1.1409955
253	0x63	-0.99837106
254	0x6d	-0.5229563
255	0x69	-0.7131222

MobilenetV1/Conv2d_13_pointwise/weights_quant/FakeQuantWithMinMaxVars u1 [256, 1, 1, 256] scale=0.004574604 zero_point=146
0	0x8e	-0.018298415
1	0x8e	-0.018298415
2	0x92	0.0
3	0x92	0.0
4	0x8a	-0.03659683
5	0x9d	0.050320644
6	0x8e	-0.018298415
7	0x9d	0.050320644
8	0x86	-0.054895245
9	0x92	0.0
10	0x92	0.0
11	0x8a	-0.03659683
12	0x92	0.0
13	0x8e	-0.018298415
14	0x9d	0.050320644
15	0x92	0.0
16	0x8e	-0.018298415
17	0x8a	-0.03659683
18	0x8a	-0.03659683
19	0x92	0.0
20	0x9d	0.050320644
21	0x92	0.0
22	0x8b	-0.032022227
23	0x9d	0.050320644
24	0x8e	-0.018298415
25	0x8e	-0.018298415
26	0x92	0.0
27	0x8a	-0.03659683
28	0x92	0.0
29	0x9d	0.050320644
30	0x8e	-0.018298415
31	0x86	-0.054895245
32	0x8a	-0.03659683
33	0x8a	-0.03659683
34	0x92	0.0
35	0x8b	-0.032022227
36	0x9d	0.050320644
37	0x86	-0.054895245
38	0x86	-0.054895245
39	0x86	-0.054895245
40	0x8b	-0.032022227
41	0x8e	-0.018298415
42	0x8e	-0.018298415
43	0x8e	-0.018298415
44	0x92	0.0
45	0x92	0.0
46	0x8a	-0.03659683
47	0x8b	-0.032022227
48	0x8a	-0.03659683
49	0x92	0.0
50	0x8b	-0.032022227
51	0x8a	-0.03659683
52	0x86	-0.054895245
53	0x92	0.0
54	0x92	0.0
55	0x92	0.0
56	0x8b	-0.032022227
57	0x8b	-0.032022227
58	0x9d	0.050320644
59	0x9d	0.050320644
60	0x92	0.0
61	0x8e	-0.018298415
62	0x8e	-0.018298415
63	0x8e	-0.018298415
64	0x92	0.0
65	0x86	-0.054895245
66	0x92	0.0
67	0x92	0.0
68	0x86	-0.054895245
69	0x8e	-0.018298415
70	0x9d	0.050320644
71	0x86	-0.054895245
72	0x9d	0.050320644
73	0x8b	-0.032022227
74	0x92	0.0
75	0x92	0.0
76	0x8b	-0.032022227
77	0x9d	0.050320644
78	0x86	-0.054895245
79	0x92	0.0
80	0x92	0.0
81	0x8b	-0.032022227
82	0x8e	-0.018298415
83	0x92	0.0
84	0x92	0.0
85	0x86	-0.054895245
86	0x8e	-0.018298415
87	0x8a	-0.03659683
88	0x92	0.0
89	0x8e	-0.018298415
90	0x92	0.0
91	0x8a	-0.03659683
92	0x8e	-0.018298415
93	0x8b	-0.032022227
94	0x92	0.0
95	0x92	0.0
96	0x9d	0.050320644
97	0x8a	-0.03659683
98	0x9d	0.050320644
99	0x8e	-0.018298415
100	0x8a	-0.03659683
101	0x92	0.0
102	0x8e	-0.018298415
103	0x92	0.0
104	0x86	-0.054895245
105	0x8e	-0.018298415
106	0x8a	-0.03659683
107	0x8e	-0.018298415
108	0x8e	-0.018298415
109	0x92	0.0
110	0x8e	-0.018298415
111	0x8e	-0.018298415
112	0x92	0.0
113	0x9d	0.050320644
114	0x92	0.0
115	0x92	0.0
116	0x8a	-0.03659683
117	0x92	0.0
118	0x8e	-0.018298415
119	0x92	0.0
120	0x92	0.0
121	0x9d	0.050320644
122	0x92	0.0
123	0x8e	-0.018298415
124	0x9d	0.050320644
125	0x8e	-0.018298415
126	0x86	-0.054895245
127	0x92	0.0
128	0x8e	-0.018298415
129	0x9d	0.050320644
130	0x8e	-0.018298415
131	0x92	0.0
132	0x8a	-0.03659683
133	0x9d	0.050320644
134	0x92	0.0
135	0x8e	-0.018298415
136	0x86	-0.054895245
137	0x9d	0.050320644
138	0x92	0.0
139	0x92	0.0
140	0x92	0.0
141	0x86	-0.054895245
142	0x9d	0.050320644
143	0x8e	-0.018298415
144	0x92	0.0
145	0x92	0.0
146	0x9d	0.050320644
147	0x8e	-0.018298415
148	0x8a	-0.03659683
149	0x8a	-0.03659683
150	0x86	-0.054895245
151	0x8e	-0.018298415
152	0x92	0.0
153	0x9d	0.050320644
154	0x8e	-0.018298415
155	0x8b	-0.032022227
156	0x92	0.0
157	0x8a	-0.03659683
158	0x8a	-0.03659683
159	0x86	-0.054895245
160	0x92	0.0
161	0x8e	-0.018298415
162	0x92	0.0
163	0x8a	-0.03659683
164	0x8a	-0.03659683
165	0x8e	-0.018298415
166	0x92	0.0
167	0x92	0.0
168	0x8a	-0.03659683
169	0x86	-0.054895245
170	0x8a	-0.03659683
171	0x8b	-0.032022227
172	0x9d	0.050320644
173	0x92	0.0
174	0x92	0.0
175	0x86	-0.054895245
176	0x92	0.0
177	0x9d	0.050320644
178	0x8e	-0.018298415
179	0x8a	-0.03659683
180	0x86	-0.054895245
181	0x8a	-0.03659683
182	0x8e	-0.018298415
183	0x92	0.0
184	0x92	0.0
185	0x8e	-0.018298415
186	0x92	0.0
187	0x8e	-0.018298415
188	0x8e	-0.018298415
189	0x8e	-0.018298415
190	0x8e	-0.018298415
191	0x8e	-0.018298415
192	0x92	0.0
193	0x9d	0.050320644
194	0x92	0.0
195	0x92	0.0
196	0x9d	0.050320644
197	0x92	0.0
198	0x8a	-0.03659683
199	0x86	-0.054895245
200	0x8e	-0.018298415
201	0x92	0.0
202	0x8a	-0.03659683
203	0x8e	-0.018298415
204	0x92	0.0
205	0x8b	-0.032022227
206	0x92	0.0
207	0x8b	-0.032022227
208	0x92	0.0
209	0x92	0.0
210	0x92	0.0
211	0x8b	-0.032022227
212	0x92	0.0
213	0x92	0.0
214	0x86	-0.054895245
215	0x92	0.0
216	0x8e	-0.018298415
217	0x92	0.0
218	0x8b	-0.032022227
219	0x8b	-0.032022227
220	0x8e	-0.018298415
221	0x9d	0.050320644
222	0x8e	-0.018298415
223	0x92	0.0
224	0x92	0.0
225	0x92	0.0
226	0x92	0.0
227	0x86	-0.054895245
228	0x86	-0.054895245
229	0x8e	-0.018298415
230	0x92	0.0
231	0x8e	-0.018298415
232	0x92	0.0
233	0x92	0.0
234	0x8b	-0.032022227
235	0x8a	-0.03659683
236	0x86	-0.054895245
237	0x8a	-0.03659683
238	0x8a	-0.03659683
239	0x8b	-0.032022227
240	0x8e	-0.018298415
241	0x8e	-0.018298415
242	0x92	0.0
243	0x92	0.0
244	0x86	-0.054895245
245	0x8e	-0.018298415
246	0x86	-0.054895245
247	0x8a	-0.03659683
248	0x92	0.0
249	0x8e	-0.018298415
250	0x8a	-0.03659683
251	0x8e	-0.018298415
252	0x9d	0.050320644
253	0x8e	-0.018298415
254	0x92	0.0
255	0x8e	-0.018298415

MobilenetV1/Conv2d_1_depthwise/weights_quant/FakeQuantWithMinMaxVars u1 [1, 3, 3, 8] scale=0.4740436 zero_point=126
0	0x7d	-0.4740436
1	0x82	1.8961744
2	0x89	5.2144794
3	0x7f	0.4740436
4	0x7e	0.0
5	0x7e	0.0
6	0x7e	0.0
7	0x7e	0.0
8	0x7e	0.0
9	0x7a	-1.8961744
10	0x2b	-39.34562
11	0x7f	0.4740436
12	0x7e	0.0
13	0x7e	0.0
14	0x7e	0.0
15	0x7d	-0.4740436
16	0x7e	0.0
17	0x7e	0.0
18	0x23	-43.13797
19	0x7f	0.4740436
20	0x7e	0.0
21	0x7e	0.0
22	0x7e	0.0
23	0x7e	0.0
24	0x82	1.8961744
25	0x7f	0.4740436
26	0xff	61.151627
27	0x7e	0.0
28	0x78	-2.8442616
29	0x7e	0.0
30	0x7e	0.0
31	0x7e	0.0
32	0x7e	0.0
33	0x7d	-0.4740436
34	0x0e	-53.092884
35	0x7e	0.0
36	0x7d	-0.4740436
37	0x7a	-1.8961744
38	0x80	0.9480872
39	0x7d	-0.4740436
40	0x7d	-0.4740436
41	0x7e	0.0
42	0x56	-18.961744
43	0x7d	-0.4740436
44	0x85	3.3183053
45	0x82	1.8961744
46	0x7e	0.0
47	0x7e	0.0
48	0x7d	-0.4740436
49	0x7e	0.0
50	0x29	-40.293705
51	0x7f	0.4740436
52	0x7e	0.0
53	0x7e	0.0
54	0x7e	0.0
55	0x7e	0.0
56	0x7e	0.0
57	0x7e	0.0
58	0x01	-59.25545
59	0x7f	0.4740436
60	0x7e	0.0
61	0x7e	0.0
62	0x7d	-0.4740436
63	0x7f	0.4740436
64	0x7e	0.0
65	0x7e	0.0
66	0x3f	-29.864748
67	0x7f	0.4740436
68	0x7e	0.0
69	0x7e	0.0
70	0x7e	0.0
71	0x7e	0.0

MobilenetV1/Conv2d_1_pointwise/weights_quant/FakeQuantWithMinMaxVars u1 [16, 1, 1, 8] scale=0.012277677 zero_point=126
0	0x6d	-0.2087205
1	0x7e	0.0
2	0x7e	0.0
3	0x7e	0.0
4	0x6c	-0.22099818
5	0x93	0.25783122
6	0x8e	0.19644283
7	0xa0	0.417441
8	0xb6	0.6875499
9	0x80	0.024555353
10	0x7e	0.0
11	0x7e	0.0
12	0x8c	0.17188747
13	0x7a	-0.049110707
14	0x79	-0.061388385
15	0xd5	1.0681579
16	0x8e	0.19644283
17	0x81	0.03683303
18	0x7e	0.0
19	0x7e	0.0
20	0x88	0.12277677
21	0x70	-0.17188747
22	0x76	-0.098221414
23	0x58	-0.46655172
24	0x7f	0.012277677
25	0x35	-0.8962704
26	0x7e	0.0
27	0x7e	0.0
28	0x89	0.13505444
29	0xaf	0.60160613
30	0x79	-0.061388385
31	0x7c	-0.024555353
32	0x82	0.049110707
33	0xff	1.5838203
34	0x7e	0.0
35	0x7e	0.0
36	0x89	0.13505444
37	0xb0	0.61388385
38	0x7a	-0.049110707
39	0x7a	-0.049110707
40	0x82	0.049110707
41	0x8a	0.14733212
42	0x7e	0.0
43	0x7e	0.0
44	0x83	0.061388385
45	0x45	-0.69982755
46	0xbe	0.7857713
47	0x82	0.049110707
48	0x87	0.11049909
49	0x8d	0.18416515
50	0x7e	0.0
51	0x7e	0.0
52	0xc3	0.8471597
53	0x2a	-1.0313249
54	0x74	-0.12277677
55	0x81	0.03683303
56	0x79	-0.061388385
57	0x7c	-0.024555353
58	0x7e	0.0
59	0x7e	0.0
60	0x76	-0.098221414
61	0x88	0.12277677
62	0x77	-0.085943736
63	0x66	-0.29466423
64	0x7f	0.012277677
65	0x87	0.11049909
66	0x7e	0.0
67	0x7e	0.0
68	0x3d	-0.798049
69	0xcf	0.9944918
70	0x74	-0.12277677
71	0x74	-0.12277677
72	0x81	0.03683303
73	0x85	0.085943736
74	0x7e	0.0
75	0x7e	0.0
76	0x7d	-0.012277677
77	0x84	0.07366606
78	0xe1	1.21549
79	0x81	0.03683303
80	0x89	0.13505444
81	0x80	0.024555353
82	0x7e	0.0
83	0x7e	0.0
84	0x7f	0.012277677
85	0x7e	0.0
86	0x81	0.03683303
87	0x56	-0.49110708
88	0x9b	0.35605264
89	0x7a	-0.049110707
90	0x7e	0.0
91	0x7e	0.0
92	0x7e	0.0
93	0x7d	-0.012277677
94	0x7b	-0.03683303
95	0x4a	-0.6384392
96	0x73	-0.13505444
97	0x7b	-0.03683303
98	0x7e	0.0
99	0x7e	0.0
100	0x7d	-0.012277677
101	0x7c	-0.024555353
102	0x7c	-0.024555353
103	0xbf	0.798049
104	0x85	0.085943736
105	0x72	-0.14733212
106	0x7e	0.0
107	0x7e	0.0
108	0x60	-0.3683303
109	0x01	-1.5347096
110	0x7a	-0.049110707
111	0x8c	0.17188747
112	0x77	-0.085943736
113	0x7f	0.012277677
114	0x7e	0.0
115	0x7e	0.0
116	0x79	-0.061388385
117	0x85	0.085943736
118	0x83	0.061388385
119	0x90	0.22099818
120	0x6d	-0.2087205
121	0x7c	-0.024555353
122	0x7e	0.0
123	0x7e	0.0
124	0x72	-0.14733212
125	0x93	0.25783122
126	0x75	-0.11049909
127	0x64	-0.3192196

MobilenetV1/Conv2d_2_depthwise/weights_quant/FakeQuantWithMinMaxVars u1 [1, 3, 3, 16] scale=0.022977391 zero_point=152
0	0x80	-0.5514574
1	0x9f	0.16084173
2	0xa7	0.34466088
3	0x91	-0.16084173
4	0x94	-0.091909565
5	0xa1	0.20679653
6	0x9c	0.091909565
7	0xd0	1.2867339
8	0x9f	0.16084173
9	0x91	-0.16084173
10	0xbd	0.85016346
11	0x91	-0.16084173
12	0x94	-0.091909565
13	0x9f	0.16084173
14	0xd9	1.4935304
15	0x94	-0.091909565
16	0xb1	0.57443476
17	0x9f	0.16084173
18	0xaa	0.41359305
19	0x8e	-0.22977391
20	0x8f	-0.20679653
21	0xa8	0.36763826
22	0xa0	0.18381913
23	0xc0	0.91909564
24	0x9f	0.16084173
25	0x8d	-0.2527513
26	0xff	2.3666713
27	0x8e	-0.22977391
28	0xa5	0.29870608
29	0xa4	0.2757287
30	0xd8	1.470553
31	0xd5	1.4016209
32	0xa8	0.36763826
33	0x9b	0.068932176
34	0x88	-0.36763826
35	0x95	-0.068932176
36	0x93	-0.114886954
37	0xa1	0.20679653
38	0x9d	0.114886954
39	0x55	-1.5394852
40	0x9b	0.068932176
41	0x91	-0.16084173
42	0xdb	1.5394852
43	0x96	-0.045954783
44	0xa0	0.18381913
45	0x9d	0.114886954
46	0x59	-1.4475757
47	0x99	0.022977391
48	0xa4	0.2757287
49	0x9c	0.091909565
50	0xc9	1.1258922
51	0x8c	-0.2757287
52	0x8d	-0.2527513
53	0xa7	0.34466088
54	0x9f	0.16084173
55	0x56	-1.5165079
56	0xa1	0.20679653
57	0x8a	-0.32168347
58	0x70	-0.91909564
59	0x8d	-0.2527513
60	0x85	-0.43657044
61	0xa3	0.2527513
62	0xd1	1.3097113
63	0x64	-1.1948243
64	0xbe	0.8731409
65	0x9e	0.13786435
66	0x80	-0.5514574
67	0x81	-0.52848
68	0x82	-0.5055026
69	0xac	0.45954782
70	0xa6	0.32168347
71	0xca	1.1488695
72	0xa7	0.34466088
73	0x83	-0.48252523
74	0x31	-2.3666713
75	0x88	-0.36763826
76	0x54	-1.5624626
77	0xa6	0.32168347
78	0x01	-3.4695861
79	0x8b	-0.29870608
80	0x79	-0.7122991
81	0x9b	0.068932176
82	0x7e	-0.59741217
83	0x8c	-0.2757287
84	0x8d	-0.2527513
85	0xa4	0.2757287
86	0x9f	0.16084173
87	0xba	0.7812313
88	0x9f	0.16084173
89	0x8b	-0.29870608
90	0x52	-1.6084174
91	0x92	-0.13786435
92	0x6d	-0.9880278
93	0x9e	0.13786435
94	0xa5	0.29870608
95	0xb4	0.64336693
96	0xaa	0.41359305
97	0x9b	0.068932176
98	0xad	0.48252523
99	0x95	-0.068932176
100	0x8f	-0.20679653
101	0x9f	0.16084173
102	0x9a	0.045954783
103	0x8d	-0.2527513
104	0x9c	0.091909565
105	0x91	-0.16084173
106	0x92	-0.13786435
107	0x93	-0.114886954
108	0xb0	0.5514574
109	0x9c	0.091909565
110	0x6f	-0.94207305
111	0xc7	1.0799373
112	0x75	-0.8042087
113	0x9c	0.091909565
114	0x75	-0.8042087
115	0x8a	-0.32168347
116	0x8a	-0.32168347
117	0xa0	0.18381913
118	0xa0	0.18381913
119	0x51	-1.6313947
120	0x9e	0.13786435
121	0x8e	-0.22977391
122	0x9e	0.13786435
123	0x8f	-0.20679653
124	0xd2	1.3326887
125	0x9d	0.114886954
126	0x90	-0.18381913
127	0x64	-1.1948243
128	0x8e	-0.22977391
129	0x9a	0.045954783
130	0x9a	0.045954783
131	0x8b	-0.29870608
132	0x92	-0.13786435
133	0x9b	0.068932176
134	0x9c	0.091909565
135	0xbd	0.85016346
136	0x9c	0.091909565
137	0x95	-0.068932176
138	0x9b	0.068932176
139	0x93	-0.114886954
140	0xb7	0.7122991
141	0x9a	0.045954783
142	0xd6	1.4245982
143	0x80	-0.5514574
